models/model_bayes.onnx (onnx, 1942 bytes, 4 tensors)

theta f4 [1, 2, 13]
000000 14 6f 32 3e b3 0f 23 3b 1d 12 33 3b 2d 46 d4 3e
       0.17425185 0.0024881184 0.0027324029 0.4145979
000010 51 f1 43 3f e4 0c ff 39 d8 80 d3 3a 94 b4 e2 3e
       0.76540095 0.00048646994 0.0016136421 0.44278395
000020 0f 6f c7 3a f7 8f 93 3b c1 2f 77 3b 22 2b 4e 3b
       0.0015215593 0.004503246 0.0037717673 0.0031458815
000030 03 c6 0c 3c 10 68 29 3e 85 06 fb 3a 2a d1 a9 3b
       0.008592132 0.16543603 0.0019151723 0.005182405
000040 13 b7 cf 3e ce a7 3e 3f 99 b4 df 39 ee 73 0c 3b
       0.40569362 0.744748 0.0004266843 0.0021431404
000050 89 bc f9 3e 85 cd 1b 3a d0 77 0f 3b 6d 10 a6 3b
       0.48776653 0.00059434056 0.0021891482 0.005067876
000060 f1 1c be 3a ba 39 04 3c
       0.0014504475 0.008070404

sigma f4 [1, 2, 13]
000000 72 19 84 3a 9c 91 f6 35 ce 92 83 37 88 f9 81 3b
       0.0010078384 1.8370806e-06 1.5684778e-05 0.003966514
000010 79 04 8d 3b 1a d2 a8 35 35 c1 8a 36 d8 9d d0 3b
       0.0043035117 1.2578123e-06 4.1352127e-06 0.0063664727
000020 ac d1 2a 36 c9 4f 8c 37 5f 15 6d 36 57 40 2c 37
       2.545402e-06 1.6726453e-05 3.5328192e-06 1.0266979e-05
000030 14 91 3d 37 7f 06 98 3a 8b 9d 27 36 f6 88 70 37
       1.12990565e-05 0.0011598616 2.4976641e-06 1.4337003e-05
000040 65 b8 60 3b f8 10 97 3b 59 93 9c 35 33 2c 83 36
       0.0034289595 0.004610177 1.166579e-06 3.9092497e-06
000050 00 3b c7 3b 3b ab cf 35 b4 93 0c 37 2e 5d 78 36
       0.0060800314 1.5472536e-06 8.37904e-06 3.7009117e-06
000060 4f 06 13 37 b0 8c b1 37
       8.763352e-06 2.1165557e-05

jointi f4 [1, 2]
000000 14 8e 3a bf 3f a6 28 bf
       -0.72873044 -0.6587867

sigma_sum_log f4 [1, 2]
000000 e1 35 59 42 9b 59 5a 42
       54.302616 54.587505
