models/torch_model.pth (torch, 7216 bytes, 3 tensors)

weight f4 [64, 13]
00000000: 1433 66be bda7 71be a7ad bebc 8f24 353e
00000010: 0446 c93d 771a 15be 6205 1b3e ff43 83be
00000020: a403 75be deb2 353d e2ea d7bd 8b1f 6f3e
00000030: 4d2f 69be a0ce 87be 7ec5 53be 9236 673e
00000040: 82cc 3d3e 6b4f 43be f043 3b3d ded5 44be
00000050: 22b2 c9bd 56db 2c3e ce09 adbd 8efc cdbd
00000060: 0a7b 35be c231 f7bd ce3d f53d a38e fa3d
00000070: 59f0 b83e dbd0 e8bc 092d 45be c30e 213e
00000080: 1c89 073b 65a9 da3d 3149 96be f693 25be
00000090: 1a60 093d 1527 47be 7e02 7abe 52ce 143e
000000a0: 0a57 473e 4f20 863e f70d 12be 1c38 11bd
000000b0: e296 b7bd 9070 8d3c 6cb5 ff3d 9753 823e
000000c0: e49b 10bd 3260 6f3e b8b5 623d b867 fa3d
000000d0: 1c63 f63d 9069 043d 52ea 09be 00da 973c
000000e0: e672 76be b6a9 8bbe ae0a 2bbe 68a8 1cbe
000000f0: f6cb 463e 4613 093e 1b3c 13be ec59 3fbe
00000100: 8ea6 7e3e 10f2 d9bc b197 013e d87c 043d
00000110: 0ae6 2b3e b641 833c 72a8 7dbe ad78 16be
00000120: ae5c 74bd 5730 90be 53bb 21be db42 833e
00000130: 241b 0dbe cec7 39be 5eec a0bd 105a be3c
00000140: 969d 1f3e 2c84 c73d fcfd 43be 4494 a8bd
00000150: b4bb 3fbe e07d c8bd e89d b9bd 2081 033c
00000160: b019 b13c f92f 2abe 8cbe 1ebd 8bdf 253d
00000170: 1f96 0a3d 30d9 bf3e 4f84 1f3e 7582 a83c
00000180: 1e7a e23c d2cb 9fbc 5d49 cd3d 92c1 053e
00000190: 426a ffbd b7db b4bd aafd d5bc 0f76 883d
000001a0: 830a 8ebe ca11 ab3e 43c7 85be 7eb0 e93d
000001b0: 13a3 563d 84c6 553d 853d 61be 5c73 073e
000001c0: 2897 a33e e394 96bd c524 1ebe 41fe c2bd
000001d0: 0499 b23c 7cd6 cd3d 233d 813d b32d 4ebe
000001e0: c175 61be 2d2d 493e a6b6 84bd e5ff adbd
000001f0: 9b0d a93b 1a6d abbc 7fb2 423d c920 8e3e
00000200: 7b91 6fbd 6c75 163e 8a6b 5a3e 547a 8abe
00000210: 0ab4 6fbe c4b3 fb3d e196 4cbe ea75 51be
00000220: 9562 2c3e 98e6 cd3b 9a11 33be d6e7 22be
00000230: 8c9e 52bd 1ff1 0e3e 9eb8 a2bd c28a 30be
00000240: dab7 733e 827f d4bd 07d5 08bb 8b8b 0a3c
00000250: f85b 793e 4e7e e73d 250a ddbd b4c4 2cbd
00000260: ce31 1bbd 1f98 b5be 9a41 9dbd 4abe 8d3d
00000270: 9714 99be 57e7 963e 2bbf 81be 45f2 9f3d
00000280: 9cbc 24be 4c0d c13d d0e0 22be adf1 27be
00000290: 3731 983e 37f6 c83d 474e 523e 1747 b03d
000002a0: 4494 84be 8fc0 903c 97c9 a1be 5bde b53e
000002b0: be32 883e 70db 193c a426 2dbe a2bb 353e
000002c0: 8d66 903e 94e3 80be 62ea 91be cd49 a9bd
000002d0: 3e27 e53c f835 84be 8051 8ebe 3348 0f3e
000002e0: 78bd e13d 0135 83be 4acf da3d 94bd 4e3e
000002f0: 0408 493c 6ffc d8bd 1735 273c 411e 0fbe
00000300: 35ef 863e aab0 12be 26cf 5dbe e49b 103e
00000310: 1112 f3bd 969e 06be 4e4c 123d 7920 fe3d
00000320: 98bb a33b af1d 183e bf6e ac3e 48e2 95be
00000330: 5c2a ee3d 84f9 cebc 002a 9ebe 9ba3 833e
00000340: 3eb0 ee3d 99e8 523e b887 373e d59d 533e
00000350: 153d 963d 03a9 ae3d 1892 77be 8b9c 94bc
00000360: 7a02 4a3e 78f9 983e 94cf a6be e6d5 94bc
00000370: e823 15bc ff2d 363e 071c 8e3d 5abb 213e
00000380: 6c1a 7dbe 7185 8c3d 6101 2f3e d52f 33bd
00000390: e16f 5a3d b965 43be bb0d 71be 9e8d a8bd
000003a0: a272 4dbe d00b a8be 1e7f 82be 3b90 243e
000003b0: 5440 c73d 8d06 c63d be9b 563e 3358 e03d
000003c0: f42d 8ebd 22c4 45be 649c 26be c978 0cbe
000003d0: a715 fa3d 5fbf 9bbe 6c12 67bd a1e1 0abe
000003e0: a8bf 8e3d fa0a 32be a032 fb3d 1288 e7bd
000003f0: d80f a5bd fce4 6cbd 0298 59be d87b 4c3d
-0.22480422 -0.23599143 -0.023276163 0.17689727 0.098278075 -0.14560877 0.15138772 -0.25637814
-0.2392717 0.044360034 -0.10542847 0.23351876 -0.2277195 -0.2652483 -0.20680806 0.2257941
0.18535045 -0.19073264 0.045719087 -0.19222209 -0.09848429 0.16880545 -0.08449136 -0.100579366
-0.17722717 -0.120700374 0.11974679 0.12234237 0.3612087 -0.028419903 -0.19255461 0.15728287
0.0020681089 0.10676841 -0.29352716 -0.16169724 0.033538915 -0.19448502 -0.24415013 0.1453183
0.19466797 0.26196525 -0.1426314 -0.0354539 -0.089643255 0.017265588 0.12485775 0.254544
-0.03530492 0.2337654 0.05534908 0.12226814 0.12030622 0.032327235 -0.13468292 0.018536568
-0.24067268 -0.27277917 -0.16703293 -0.15298617 0.19413742 0.13386258 -0.14378397 -0.18686646
0.24868223 -0.026604682 0.12655522 0.032345623 0.16786972 0.016022544 -0.24771288 -0.14694472
-0.0596587 -0.2816188 -0.15794115 0.25636944 -0.13779885 -0.18142626 -0.078575835 0.023236305
0.15587458 0.09742007 -0.19139856 -0.082314044 -0.18723947 -0.09789634 -0.09063321 0.008026391
0.021618694 -0.16619863 -0.03875594 0.04049639 0.033834573 0.37470388 0.15577815 0.02057002
0.02764612 -0.019506369 0.100237586 0.13062122 -0.12471439 -0.0883097 -0.026121933 0.06663143
-0.27742395 0.3341201 -0.26128587 0.11410616 0.052401613 0.052191272 -0.21996124 0.132276
0.3195126 -0.07352617 -0.15443714 -0.09521151 0.02180148 0.10050675 0.06310489 -0.2013462
-0.22017576 0.1964614 -0.0648015 -0.08496074 0.0051590926 -0.020926047 0.04753351 0.27759388
-0.05848835 0.1469323 0.21330085 -0.27046454 -0.23408523 0.12290147 -0.1997943 -0.20455137
0.16834481 0.0062835924 -0.17487183 -0.15908751 -0.051420733 0.13959168 -0.07945369 -0.17240432
0.23800603 -0.10375883 -0.0020878927 0.008456121 0.2435149 0.113033876 -0.107929505 -0.04217978
-0.037889294 -0.35467622 -0.07678528 0.069210604 -0.2989852 0.29473373 -0.25341162 0.07809881
-0.16087574 0.09426364 -0.15906072 -0.16400786 0.29725048 0.09812587 0.20537673 0.08607309
-0.25894368 0.017669944 -0.31599113 0.35521206 0.26601213 0.009390697 -0.16909271 0.17747357
0.2820324 -0.25173628 -0.28499132 -0.082660295 0.027972814 -0.25822425 -0.27796555 0.13992386
0.110224664 -0.25626376 0.106840685 0.20189506 0.0122699775 -0.10595023 0.010205529 -0.13976385
0.26354375 -0.14325204 -0.21661052 0.14121968 -0.1186868 -0.13146433 0.0357173 0.124085374
0.004996728 0.14855073 0.33678243 -0.292742 0.11629173 -0.025265463 -0.30891418 0.2571076
0.11654709 0.20596541 0.17922866 0.20665677 0.07335869 0.0852833 -0.24176824 -0.018141052
0.19727507 0.2987783 -0.32580245 -0.018168401 -0.009102799 0.17790984 0.069389395 0.15794125
-0.2471711 0.068613894 0.1709037 -0.043746788 0.053329352 -0.19081773 -0.23540394 -0.08230136
-0.2006326 -0.32821512 -0.25487608 0.16070645 0.097290665 0.09669218 0.20957848 0.10954323
-0.069423586 -0.193131 -0.16270596 -0.13717951 0.12211161 -0.30419442 -0.056414053 -0.13562633
0.06970149 -0.17387 0.12265515 -0.1130525 -0.080596626 -0.057835564 -0.21249393 0.049922794

bias f4 [64]
00000000: 50df b33d d008 893c bc91 4c3e 0461 7ebe
00000010: 1c38 8cbe 1145 653d 3bf9 41be 1cd1 5dbd
00000020: 651b d1bd 1469 03be 2f7e 30bd b269 ee3d
00000030: e444 053e 7319 933e b368 663e 9efd 073e
00000040: eabf 613e dd51 8e3c 26d2 e93d b6a2 71be
00000050: a9e7 753e 9d97 973e 0842 0d3e 16a8 3dbe
00000060: ec7e 313e 688d 43be 719d 1bbe 360c 163e
00000070: 7416 993d d982 9e3d 5854 1f3e 8477 54be
00000080: cd8c 143e ffcf 403e 2068 113e f9ea febd
00000090: da8d 1ebe 8dcf c7bd 9b4f c43c 5064 493e
000000a0: 9835 013d 77d4 953d 6696 aebd 98fc b8bd
000000b0: c485 e33d bbb4 3bbe b20d 17be 3f35 7f3e
000000c0: 6824 82be 520a 38be 70bb 39bd a5a4 72bd
000000d0: e5a8 76be f6d0 63be 6cca 1c3d 2c49 91bd
000000e0: 915b 8dbe af96 cfbd 8e4c d9bd 40a7 df3c
000000f0: a5cd b83d e1a3 86bb f5a9 273e d45c 4c3e
0.08782828 0.016727835 0.19977468 -0.24841696 -0.27386558 0.05597407 -0.1894273 -0.0541545
-0.10210303 -0.12833053 -0.043089088 0.116412535 0.13014561 0.28730354 0.22500877 0.13280341
0.22045866 0.01737302 0.11417036 -0.23597226 0.24014153 0.2960786 0.1379472 -0.18521151
0.17333573 -0.19096911 -0.15196778 0.14653096 0.07474986 0.07739801 0.15559518 -0.20748717
0.14506836 0.18829344 0.14199877 -0.12447161 -0.154838 -0.09756384 0.02396374 0.19667172
0.03154525 0.07315915 -0.0852478 -0.090325534 0.11109498 -0.18330662 -0.14751318 0.24922656
-0.254184 -0.17972687 -0.04534477 -0.05923905 -0.24087866 -0.22247681 0.038278982 -0.070940346
-0.27608922 -0.101361625 -0.10610305 0.02730143 0.090235986 -0.0041088914 0.16373427 0.19957286

weight f4 [1, 64]
00000000: b63b 37bd ccef e23d c5ea cc3d 1052 0cbd
00000010: 18dc 71bd fa7d b63c c83e 033d 4b3b 633d
00000020: 5870 f43c d2db 293e d611 d13c 303d 1bbd
00000030: 1ca7 87bd a001 783d b848 9c3d 1698 583d
00000040: 6883 31bb ccee 023d f2ec a1bc 4038 2f3c
00000050: da79 2a3d c2e9 dc3d 4080 1b3d c450 333d
00000060: 1028 db3c 40f8 66bc cf65 3abe 7059 93bd
00000070: 24a3 b9bd 8ee7 c13d 10f2 8fbd e0b9 9a3b
00000080: 6673 57bb a461 3ebb cdfe 443b 2c25 903d
00000090: e40f 10bd 3f3f a13c 6cf3 acbc 80b1 41bc
000000a0: 2af7 dfbd 57d4 36bd 4471 5e3d 601d c6bb
000000b0: 8b2f 7c3c f67f 4cbd 7097 e3bc a47b 593d
000000c0: 04d9 583d c477 40bd feff 90bd 88f0 243d
000000d0: 8a8f a4bd 46b6 043c 13be ef3c 4875 6fbd
000000e0: 8698 8abd 1c46 32bd 39d0 08bd ac0c 57bd
000000f0: b419 183e 7caf 67bd 81b0 8d3c 48f3 e3bc
-0.04473468 0.11080894 0.10005716 -0.03425795 -0.05904779 0.022276867 0.032042295 0.055476468
0.029838726 0.16587761 0.0255212 -0.03790015 -0.066236705 0.060548425 0.076310575 0.052879415
-0.002708638 0.031966016 -0.019766305 0.010694563 0.041620113 0.10786773 0.037964106 0.043778196
0.026752502 -0.014097273 -0.182029 -0.07194793 -0.0906432 0.09467994 -0.07028592 0.004721865
-0.003287518 -0.0029049898 0.00300591 0.0703834 -0.035171404 0.019683478 -0.021112166 -0.011822104
-0.10935815 -0.044636097 0.054307237 -0.0060459822 0.0153921945 -0.04992672 -0.027782172 0.05309643
0.052941337 -0.046989217 -0.07080077 0.04026845 -0.080351904 0.008100098 0.02926544 -0.058461457
-0.06767373 -0.043523893 -0.0334017 -0.05250232 0.14853555 -0.05656384 0.017296078 -0.027825966
